modules/lib_vnr/python/model/model_output/trained_model.tflite (tflite, 13592 bytes, 4 tensors)

sequential/conv2d/Conv2D i1 [64, 1, 1, 24]
000000 ff f8 f8 f3 f1 f8 fa f0 03 04 10 10 f9 4e fa 81
       -1 -8 -8 -13 -15 -8 -6 -16 3 4 16 16 -7 78 -6 -127
000010 05 18 20 e8 e2 f1 14 08 fc 0e f9 ef 15 2f f7 f4
       5 24 32 -24 -30 -15 20 8 -4 14 -7 -17 21 47 -9 -12
000020 cf 06 3d 23 cb 42 f1 81 0b 21 fd fc 20 e1 10 f9
       -49 6 61 35 -53 66 -15 -127 11 33 -3 -4 32 -31 16 -7
000030 29 55 fa 4a 5a ba 12 ef 7c ac fc 44 50 d9 ba 7f
       41 85 -6 74 90 -70 18 -17 124 -84 -4 68 80 -39 -70 127
000040 3c 51 9c 3f 2d 34 b1 54 25 70 6e 18 70 52 07 7c
       60 81 -100 63 45 52 -79 84 37 112 110 24 112 82 7 124
000050 e3 61 7f c9 f5 e2 a8 7d b7 99 19 6b 58 03 ef 5d
       -29 97 127 -55 -11 -30 -88 125 -73 -103 25 107 88 3 -17 93
000060 f5 0e ea 06 02 0b f5 f2 0d 0f 00 fc 29 e2 12 49
       -11 14 -22 6 2 11 -11 -14 13 15 0 -4 41 -30 18 73
000070 c2 b1 35 4c e4 81 ea 4d 29 c1 34 b2 31 3f 2f 1b
       -62 -79 53 76 -28 -127 -22 77 41 -63 52 -78 49 63 47 27
000080 ec 0c 09 fa 2d 1e 10 bf 3f fc 8a 25 cb 81 33 2b
       -20 12 9 -6 45 30 16 -65 63 -4 -118 37 -53 -127 51 43
000090 2e 97 7f ae fd 14 09 08 fd f5 03 ff 03 f1 f7 06
       46 -105 127 -82 -3 20 9 8 -3 -11 3 -1 3 -15 -9 6
0000a0 10 fa fd f0 0b fa 06 03 fe 00 0d 08 e6 ea 06 3d
       16 -6 -3 -16 11 -6 6 3 -2 0 13 8 -26 -22 6 61
0000b0 28 d5 c2 11 7f 8f e5 1f fd 49 bc c4 09 c7 e8 77
       40 -43 -62 17 127 -113 -27 31 -3 73 -68 -60 9 -57 -24 119
0000c0 ce 7e 5f 68 69 59 df cd 7f c1 57 f0 62 df f1 06
       -50 126 95 104 105 89 -33 -51 127 -63 87 -16 98 -33 -15 6
0000d0 5c 52 5b 06 7f b4 7c 03 fa 0b 00 fa 0b 10 ff fe
       92 82 91 6 127 -76 124 3 -6 11 0 -6 11 16 -1 -2
0000e0 09 0f 16 05 1c fd 81 04 26 df 19 ef 00 1c eb 09
       9 15 22 5 28 -3 -127 4 38 -33 25 -17 0 28 -21 9
0000f0 ef 1e 0e 04 0e 3a 0a 15 da 81 86 f8 43 29 18 2a
       -17 30 14 4 14 58 10 21 -38 -127 -122 -8 67 41 24 42

sequential/conv2d_1/Conv2D i1 [32, 1, 1, 64]
000000 0a 07 f5 04 03 00 08 01 01 17 0c 1c 01 07 06 0d
       10 7 -11 4 3 0 8 1 1 23 12 28 1 7 6 13
000010 01 f1 fe f8 f7 10 12 f5 04 f9 fa 07 10 e5 04 24
       1 -15 -2 -8 -9 16 18 -11 4 -7 -6 7 16 -27 4 36
000020 01 00 fd f1 81 e8 ed fa 11 03 09 00 1a 04 fb ee
       1 0 -3 -15 -127 -24 -19 -6 17 3 9 0 26 4 -5 -18
000030 f4 88 0a fc e8 17 05 fb 0c f5 01 f1 fb 08 fd f9
       -12 -120 10 -4 -24 23 5 -5 12 -11 1 -15 -5 8 -3 -7
000040 d0 34 f4 ed 08 40 20 09 0e 30 0e d5 f0 06 3d 06
       -48 52 -12 -19 8 64 32 9 14 48 14 -43 -16 6 61 6
000050 05 89 f5 2f d8 0f fb 14 ff fe 18 1c d6 c0 08 0a
       5 -119 -11 47 -40 15 -5 20 -1 -2 24 28 -42 -64 8 10
000060 4a 13 14 f7 7f fb 16 03 5a 0a 10 ea 03 19 23 10
       74 19 20 -9 127 -5 22 3 90 10 16 -22 3 25 35 16
000070 07 0a f9 14 24 db 14 f0 13 1e 17 1b ef 0d 0a 13
       7 10 -7 20 36 -37 20 -16 19 30 23 27 -17 13 10 19
000080 b2 1e ea e6 26 2a 14 09 e7 23 13 ea eb f0 15 fe
       -78 30 -22 -26 38 42 20 9 -25 35 19 -22 -21 -16 21 -2
000090 0f 9e 01 1f 7f 07 f1 f5 08 06 04 f6 e9 b8 05 11
       15 -98 1 31 127 7 -15 -11 8 6 4 -10 -23 -72 5 17
0000a0 f3 f6 11 e9 2a b6 2a fb 24 06 0a fc 38 10 ed 06
       -13 -10 17 -23 42 -74 42 -5 36 6 10 -4 56 16 -19 6
0000b0 04 17 2d e7 ef e0 ec 0c e8 01 1d cf f4 08 ee 17
       4 23 45 -25 -17 -32 -20 12 -24 1 29 -49 -12 8 -18 23
0000c0 81 96 ef 08 c5 40 0c 53 02 b8 ec 47 f5 ef 38 07
       -127 -106 -17 8 -59 64 12 83 2 -72 -20 71 -11 -17 56 7
0000d0 39 45 10 f1 f6 02 be 01 1b 06 fd 09 11 dd 0b 5e
       57 69 16 -15 -10 2 -66 1 27 6 -3 9 17 -35 11 94
0000e0 f6 0c 23 1b a6 d1 0b 01 e4 ff ef f7 ff 4a 09 0c
       -10 12 35 27 -90 -47 11 1 -28 -1 -17 -9 -1 74 9 12
0000f0 f7 5a df 1c e1 0b e4 f5 14 13 e0 bc 13 f2 ab 17
       -9 90 -33 28 -31 11 -28 -11 20 19 -32 -68 19 -14 -85 23

sequential/dense/MatMul i1 [32, 128] scale=0.07267377 zero_point=0
000000 fc ff 02 fb fe f9 07 fe f8 fb fa fa 03 04 fc fb
       -0.29069507 -0.07267377 0.14534754 -0.36336884 -0.14534754 -0.50871634 0.50871634 -0.14534754 -0.58139014 -0.36336884 -0.4360426 -0.4360426 0.2180213 0.29069507 -0.29069507 -0.36336884
000010 fa 00 07 ff e7 03 08 04 fc 0c 05 fc fb ff fd 07
       -0.4360426 0.0 0.50871634 -0.07267377 -1.8168442 0.2180213 0.58139014 0.29069507 -0.29069507 0.8720852 0.36336884 -0.29069507 -0.36336884 -0.07267377 -0.2180213 0.50871634
000020 ff ff 01 fc fe fa 03 fc fd fe fd fd 03 03 fc fc
       -0.07267377 -0.07267377 0.07267377 -0.29069507 -0.14534754 -0.4360426 0.2180213 -0.29069507 -0.2180213 -0.14534754 -0.2180213 -0.2180213 0.2180213 0.2180213 -0.29069507 -0.29069507
000030 fd ff 09 ff ef 00 06 02 fa 06 05 fc fc 00 fe 06
       -0.2180213 -0.07267377 0.65406394 -0.07267377 -1.2354541 0.0 0.4360426 0.14534754 -0.4360426 0.4360426 0.36336884 -0.29069507 -0.29069507 0.0 -0.14534754 0.4360426
000040 fe 01 01 fc 00 fc 04 fe fe fe fd fc 03 04 fb fc
       -0.14534754 0.07267377 0.07267377 -0.29069507 0.0 -0.29069507 0.29069507 -0.14534754 -0.14534754 -0.14534754 -0.2180213 -0.29069507 0.2180213 0.29069507 -0.36336884 -0.29069507
000050 00 fe 05 fe f8 00 04 03 fa 0b 03 ff fd fc ff 05
       0.0 -0.14534754 0.36336884 -0.14534754 -0.58139014 0.0 0.29069507 0.2180213 -0.4360426 0.7994114 0.2180213 -0.07267377 -0.2180213 -0.29069507 -0.07267377 0.36336884
000060 fc 00 00 f8 00 f8 08 fe fa fd fb fc 02 03 fc fd
       -0.29069507 0.0 0.0 -0.58139014 0.0 -0.58139014 0.58139014 -0.14534754 -0.4360426 -0.2180213 -0.36336884 -0.29069507 0.14534754 0.2180213 -0.29069507 -0.2180213
000070 fd ff 08 fe fa 04 09 04 fb 0b 04 f8 fc fe fe 05
       -0.2180213 -0.07267377 0.58139014 -0.14534754 -0.4360426 0.29069507 0.65406394 0.29069507 -0.36336884 0.7994114 0.29069507 -0.58139014 -0.29069507 -0.14534754 -0.14534754 0.36336884
000080 fa fd fc f9 fc 00 fe fa 06 fd fc 02 06 05 f7 fb
       -0.4360426 -0.2180213 -0.29069507 -0.50871634 -0.29069507 0.0 -0.14534754 -0.4360426 0.4360426 -0.2180213 -0.29069507 0.14534754 0.4360426 0.36336884 -0.65406394 -0.36336884
000090 fa 00 f2 fd ff 05 03 fe fc 08 f4 00 fc fc fe 00
       -0.4360426 0.0 -1.0174327 -0.2180213 -0.07267377 0.36336884 0.2180213 -0.14534754 -0.29069507 0.58139014 -0.8720852 0.0 -0.29069507 -0.29069507 -0.14534754 0.0
0000a0 fc 00 fd fe fc ff 05 fa 03 ff f9 fd 04 06 ff ff
       -0.29069507 0.0 -0.2180213 -0.14534754 -0.29069507 -0.07267377 0.36336884 -0.4360426 0.2180213 -0.07267377 -0.50871634 -0.2180213 0.29069507 0.4360426 -0.07267377 -0.07267377
0000b0 fe 00 f5 00 ff 03 06 fd fc 0e fb ff f9 03 fe 07
       -0.14534754 0.0 -0.7994114 0.0 -0.07267377 0.2180213 0.4360426 -0.2180213 -0.29069507 1.0174327 -0.36336884 -0.07267377 -0.50871634 0.2180213 -0.14534754 0.50871634
0000c0 fe 00 fc fc fe fe 01 fc 02 00 fd fe 04 04 fd fe
       -0.14534754 0.0 -0.29069507 -0.29069507 -0.14534754 -0.14534754 0.07267377 -0.29069507 0.14534754 0.0 -0.2180213 -0.14534754 0.29069507 0.29069507 -0.2180213 -0.14534754
0000d0 ff 00 f1 ff 01 04 00 fd fe 03 f6 fd fb 00 ff 07
       -0.07267377 0.0 -1.0901065 -0.07267377 0.07267377 0.29069507 0.0 -0.2180213 -0.14534754 0.2180213 -0.7267377 -0.2180213 -0.36336884 0.0 -0.07267377 0.50871634
0000e0 fd fe fa fe ff fd 02 f9 02 ff fe 00 04 04 fb fa
       -0.2180213 -0.14534754 -0.4360426 -0.14534754 -0.07267377 -0.2180213 0.14534754 -0.50871634 0.14534754 -0.07267377 -0.14534754 0.0 0.29069507 0.29069507 -0.36336884 -0.4360426
0000f0 ff 02 e5 fb ff 05 02 fd 00 0f f8 ff 00 00 01 ff
       -0.07267377 0.14534754 -1.9621917 -0.36336884 -0.07267377 0.36336884 0.14534754 -0.2180213 0.0 1.0901065 -0.58139014 -0.07267377 0.0 0.0 0.07267377 -0.07267377

sequential/dense_1/MatMul i1 [1, 32] scale=0.00028448954 zero_point=0
000000 bb e1 49 b7 b8 bd 40 4e d1 a8 34 ae d6 96 15 9d
       -0.019629778 -0.008819176 0.020767735 -0.020767735 -0.020483246 -0.019060798 0.01820733 0.022190183 -0.013371008 -0.02503508 0.014793456 -0.023328142 -0.01194856 -0.030155892 0.00597428 -0.028164463
000010 39 d2 bc d5 5f c0 4c a4 a9 37 81 e4 5d 4c 58 24
       0.016215904 -0.013086518 -0.01934529 -0.01223305 0.027026506 -0.01820733 0.021621205 -0.026173037 -0.02475059 0.015646925 -0.03613017 -0.007965707 0.026457528 0.021621205 0.02503508 0.010241623
