modules/lib_vnr/src/inference/model/trained_model_xcore.tflite (tflite, 11304 bytes, 4 tensors)

1 i1 [4096]
-1 -88 1 -3 2 -2 3 0
7 -9 1 -1 3 2 1 -8
-1 -11 6 -2 -1 3 -5 2
0 -3 3 3 5 -3 -5 3
3 0 6 3 1 4 -4 9
2 8 6 3 -2 -5 5 2
7 6 -1 4 -8 -9 -7 -3
5 -13 -3 10 8 1 6 -4
-6 -2 -2 -5 -1 -5 12 -2
5 -1 -10 -3 6 9 -3 -3
-9 2 -7 -4 -2 7 5 -2
-2 16 -13 -1 -10 2 -5 11
-5 -1 -5 -3 -7 -6 2 -6
2 -4 -4 -2 5 3 -6 -7
-7 -2 -1 -3 4 -2 -7 1
-2 10 4 -3 -3 -4 -2 3
-3 -9 0 -12 -4 -2 5 -13
4 -1 -4 -11 2 2 -4 -2
-3 -6 4 -1 -2 6 -3 2
1 1 -7 1 -1 -1 -50 6
2 4 -1 1 3 3 -5 4
-10 4 5 1 -3 -9 0 3
5 5 -4 2 -127 -2 -6 -3
2 -11 -4 -2 2 4 5 -4
-3 0 0 -3 -1 -3 4 -3
2 -10 -4 -5 3 0 -3 -4
-3 -1 5 0 -2 2 3 3
-4 9 4 -2 -1 -2 -2 3
-6 -10 0 -6 5 -5 7 0
2 -3 -5 -3 -1 6 -2 -5
-3 -9 -17 -5 -1 9 2 -1
2 -6 6 4 3 -6 -2 11
00000000: ffa8 01fd 02fe 0300 07f7 01ff 0302 01f8
00000010: fff5 06fe ff03 fb02 00fd 0303 05fd fb03
00000020: 0300 0603 0104 fc09 0208 0603 fefb 0502
00000030: 0706 ff04 f8f7 f9fd 05f3 fd0a 0801 06fc
00000040: fafe fefb fffb 0cfe 05ff f6fd 0609 fdfd
00000050: f702 f9fc fe07 05fe fe10 f3ff f602 fb0b
00000060: fbff fbfd f9fa 02fa 02fc fcfe 0503 faf9
00000070: f9fe fffd 04fe f901 fe0a 04fd fdfc fe03
00000080: fdf7 00f4 fcfe 05f3 04ff fcf5 0202 fcfe
00000090: fdfa 04ff fe06 fd02 0101 f901 ffff ce06
000000a0: 0204 ff01 0303 fb04 f604 0501 fdf7 0003
000000b0: 0505 fc02 81fe fafd 02f5 fcfe 0204 05fc
000000c0: fd00 00fd fffd 04fd 02f6 fcfb 0300 fdfc
000000d0: fdff 0500 fe02 0303 fc09 04fe fffe fe03
000000e0: faf6 00fa 05fb 0700 02fd fbfd ff06 fefb
000000f0: fdf7 effb ff09 02ff 02fa 0604 03fa fe0b

3 i1 [2048]
4 5 -1 2 -127 8 1 7
2 9 1 9 -49 0 3 -11
-7 10 -1 4 2 5 0 -2
0 4 4 1 -1 -1 -3 -15
0 -23 4 0 -32 37 -4 -17
-4 -8 0 6 -3 -3 2 8
-11 -2 0 -19 4 -5 -3 1
0 4 -6 4 -21 9 6 3
-77 0 6 2 -50 -26 3 -48
-15 -46 7 -17 16 -11 18 -30
-63 10 3 2 1 -127 -51 10
-3 -15 -12 -14 -8 -17 -28 -31
-13 -6 -8 1 -3 12 12 0
-4 -3 -7 50 -6 0 15 -47
-127 2 -3 -4 12 22 12 -6
7 5 16 -4 5 14 -23 -26
3 2 0 2 1 -8 -127 1
-3 5 -1 0 1 1 9 3
1 1 1 0 -1 0 1 1
-3 0 -100 -3 -10 -7 0 0
21 31 -3 4 -49 4 -4 -7
7 28 -104 -34 -3 -10 24 14
-19 -127 9 -28 -70 -1 -41 0
-14 6 -10 -4 13 -46 -13 41
7 -28 -13 18 -17 -3 -1 -50
-15 -127 -12 18 -9 -13 11 -10
26 -19 -13 89 6 3 -27 -10
-11 13 -3 -6 62 -11 7 -37
12 -20 5 -4 2 -48 -3 -6
-1 -6 -6 -5 3 -5 -10 0
1 1 2 -18 2 -9 -7 3
-10 -4 4 2 -1 -5 -1 -4
00000000: 0405 ff02 8108 0107 0209 0109 cf00 03f5
00000010: f90a ff04 0205 00fe 0004 0401 ffff fdf1
00000020: 00e9 0400 e025 fcef fcf8 0006 fdfd 0208
00000030: f5fe 00ed 04fb fd01 0004 fa04 eb09 0603
00000040: b300 0602 cee6 03d0 f1d2 07ef 10f5 12e2
00000050: c10a 0302 0181 cd0a fdf1 f4f2 f8ef e4e1
00000060: f3fa f801 fd0c 0c00 fcfd f932 fa00 0fd1
00000070: 8102 fdfc 0c16 0cfa 0705 10fc 050e e9e6
00000080: 0302 0002 01f8 8101 fd05 ff00 0101 0903
00000090: 0101 0100 ff00 0101 fd00 9cfd f6f9 0000
000000a0: 151f fd04 cf04 fcf9 071c 98de fdf6 180e
000000b0: ed81 09e4 baff d700 f206 f6fc 0dd2 f329
000000c0: 07e4 f312 effd ffce f181 f412 f7f3 0bf6
000000d0: 1aed f359 0603 e5f6 f50d fdfa 3ef5 07db
000000e0: 0cec 05fc 02d0 fdfa fffa fafb 03fb f600
000000f0: 0101 02ee 02f7 f903 f6fc 0402 fffb fffc

5 i1 [1664]
-11 19 -19 12 -6 -2 -22 -6
66 14 23 23 -22 -127 -98 -6
46 53 82 96 -65 -90 -26 59
-34 75 -127 78 -62 27 64 80
26 49 41 19 13 -3 -16 33
-33 -2 -93 -11 58 -1 -25 11
55 74 30 94 -37 -3 31 -6
-44 22 35 32 -19 53 -67 83
-41 -5 127 70 91 17 66 -13
6 -4 2 22 0 11 6 -20
-13 9 -12 -9 11 -44 -42 35
-127 -109 68 70 7 85 -14 34
73 -83 -100 -127 -48 62 69 36
40 -10 57 -71 -47 104 91 13
68 11 74 86 -12 -76 -7 -68
-17 30 14 4 14 58 10 21
-38 -127 -122 -8 67 41 24 42
6 -22 0 -37 32 -37 29 13
-6 11 0 -6 11 16 -1 -2
9 15 22 5 28 -3 -127 4
38 -33 25 -17 0 28 -21 9
-50 126 95 104 105 89 -33 -51
127 -63 87 -16 98 -33 -15 6
92 82 91 6 127 -76 124 3
-2 0 13 8 -26 -22 6 61
40 -43 -62 17 127 -113 -27 31
-3 73 -68 -60 9 -57 -24 119
46 -105 127 -82 -3 20 9 8
-3 -11 3 -1 3 -15 -9 6
16 -6 -3 -16 11 -6 6 3
41 -63 52 -78 49 63 47 27
-20 12 9 -6 45 30 16 -65
00000000: f513 ed0c fafe eafa 420e 1717 ea81 9efa
00000010: 2e35 5260 bfa6 e63b de4b 814e c21b 4050
00000020: 1a31 2913 0dfd f021 dffe a3f5 3aff e70b
00000030: 374a 1e5e dbfd 1ffa d416 2320 ed35 bd53
00000040: d7fb 7f46 5b11 42f3 06fc 0216 000b 06ec
00000050: f309 f4f7 0bd4 d623 8193 4446 0755 f222
00000060: 49ad 9c81 d03e 4524 28f6 39b9 d168 5b0d
00000070: 440b 4a56 f4b4 f9bc ef1e 0e04 0e3a 0a15
00000080: da81 86f8 4329 182a 06ea 00db 20db 1d0d
00000090: fa0b 00fa 0b10 fffe 090f 1605 1cfd 8104
000000a0: 26df 19ef 001c eb09 ce7e 5f68 6959 dfcd
000000b0: 7fc1 57f0 62df f106 5c52 5b06 7fb4 7c03
000000c0: fe00 0d08 e6ea 063d 28d5 c211 7f8f e51f
000000d0: fd49 bcc4 09c7 e877 2e97 7fae fd14 0908
000000e0: fdf5 03ff 03f1 f706 10fa fdf0 0bfa 0603
000000f0: 29c1 34b2 313f 2f1b ec0c 09fa 2d1e 10bf

B i1 [1, 1, 1, 32] scale=0.00028448954 zero_point=0
-0.019629778 -0.008819176 0.020767735 -0.020767735 -0.020483246 -0.019060798 0.01820733 0.022190183
-0.013371008 -0.02503508 0.014793456 -0.023328142 -0.01194856 -0.030155892 0.00597428 -0.028164463
0.016215904 -0.013086518 -0.01934529 -0.01223305 0.027026506 -0.01820733 0.021621205 -0.026173037
-0.02475059 0.015646925 -0.03613017 -0.007965707 0.026457528 0.021621205 0.02503508 0.010241623
00000000: bbe1 49b7 b8bd 404e d1a8 34ae d696 159d
00000010: 39d2 bcd5 5fc0 4ca4 a937 81e4 5d4c 5824
